…
Cannot load image "/110_7.png"
Cannot load image "/111_7.png"
Cannot load image "/112_7.png"
Cannot load image "/113_7.png"
Cannot load image "/114_7.png"
Cannot load image "/115_7.png"
Cannot load image "/116_7.png"
Cannot load image "/117_7.png"
Cannot load image "/118_7.png"
Cannot load image "/119_7.png"
Cannot load image "/120_7.png"
Cannot load image "/121_7.png"
Cannot load image "/122_7.png"
Cannot load image "/123_7.png"
Cannot load image "/124_7.png"
Cannot load image "/125_7.png"
Cannot load image "/126_7.png"
layer     filters    size              input                output
    0 conv     16  3 x 3 / 1   320 x 240 x   3   ->   320 x 240 x  16
    1 max          2 x 2 / 2   320 x 240 x  16   ->   160 x 120 x  16
    2 conv     32  3 x 3 / 1   160 x 120 x  16   ->   160 x 120 x  32
    3 max          2 x 2 / 2   160 x 120 x  32   ->    80 x  60 x  32
    4 conv     64  3 x 3 / 1    80 x  60 x  32   ->    80 x  60 x  64
    5 max          2 x 2 / 2    80 x  60 x  64   ->    40 x  30 x  64
    6 conv    128  3 x 3 / 1    40 x  30 x  64   ->    40 x  30 x 128
    7 max          2 x 2 / 2    40 x  30 x 128   ->    20 x  15 x 128
    8 conv    256  3 x 3 / 1    20 x  15 x 128   ->    20 x  15 x 256
    9 max          2 x 2 / 2    20 x  15 x 256   ->    10 x   7 x 256
   10 conv    512  3 x 3 / 1    10 x   7 x 256   ->    10 x   7 x 512
   11 max          2 x 2 / 1    10 x   7 x 512   ->    10 x   7 x 512
   12 conv   1024  3 x 3 / 1    10 x   7 x 512   ->    10 x   7 x1024
   13 conv    512  3 x 3 / 1    10 x   7 x1024   ->    10 x   7 x 512
   14 conv    425  1 x 1 / 1    10 x   7 x 512   ->    10 x   7 x 425
   15 detection
mask_scale: Using default '1.000000'
Loading weights from /home/lucky/MyLib/darknet/tiny-yolo.weights...Done!

Loading ORB Vocabulary. This could take a while...
