[31m[ERROR] [1516864669.752727717]: enter ros[0m

ORB-SLAM2 Copyright (C) 2014-2016 Raul Mur-Artal, University of Zaragoza.
This program comes with ABSOLUTELY NO WARRANTY;
This is free software, and you are welcome to redistribute it
under certain conditions. See LICENSE.txt.

Input sensor was set to: RGB-D
layer     filters    size              input                output
    0 conv     16  3 x 3 / 1   320 x 240 x   3   ->   320 x 240 x  16
    1 max          2 x 2 / 2   320 x 240 x  16   ->   160 x 120 x  16
    2 conv     32  3 x 3 / 1   160 x 120 x  16   ->   160 x 120 x  32
    3 max          2 x 2 / 2   160 x 120 x  32   ->    80 x  60 x  32
    4 conv     64  3 x 3 / 1    80 x  60 x  32   ->    80 x  60 x  64
    5 max          2 x 2 / 2    80 x  60 x  64   ->    40 x  30 x  64
    6 conv    128  3 x 3 / 1    40 x  30 x  64   ->    40 x  30 x 128
    7 max          2 x 2 / 2    40 x  30 x 128   ->    20 x  15 x 128
    8 conv    256  3 x 3 / 1    20 x  15 x 128   ->    20 x  15 x 256
    9 max          2 x 2 / 2    20 x  15 x 256   ->    10 x   7 x 256
   10 conv    512  3 x 3 / 1    10 x   7 x 256   ->    10 x   7 x 512
   11 max          2 x 2 / 1    10 x   7 x 512   ->    10 x   7 x 512
   12 conv   1024  3 x 3 / 1    10 x   7 x 512   ->    10 x   7 x1024
   13 conv    512  3 x 3 / 1    10 x   7 x1024   ->    10 x   7 x 512
   14 conv    425  1 x 1 / 1    10 x   7 x 512   ->    10 x   7 x 425
   15 detection
mask_scale: Using default '1.000000'
Loading weights from /home/lucky/MyLib/darknet/tiny-yolo.weights...Done!

Loading ORB Vocabulary. This could take a while...
Vocabulary loaded!


Camera Parameters: 
- fx: 285.171
- fy: 285.171
- cx: 159.5
- cy: 119.5
- k1: 0
- k2: 0
- p1: 0
- p2: 0
- fps: 30
- color order: RGB (ignored if grayscale)

ORB Extractor Parameters: 
…
